models/q.pth (torch, 71589 bytes, 10 tensors)

bias f4 [64]
0	0x00000000	0.0
1	0x00000000	0.0
2	0x00000000	0.0
3	0x00000000	0.0
4	0x00000000	0.0
5	0x00000000	0.0
6	0x00000000	0.0
7	0x00000000	0.0
8	0x00000000	0.0
9	0x00000000	0.0
10	0x00000000	0.0
11	0x00000000	0.0
12	0x00000000	0.0
13	0x00000000	0.0
14	0x00000000	0.0
15	0x00000000	0.0
16	0x00000000	0.0
17	0x00000000	0.0
18	0x00000000	0.0
19	0x00000000	0.0
20	0x00000000	0.0
21	0x00000000	0.0
22	0x00000000	0.0
23	0x00000000	0.0
24	0x00000000	0.0
25	0x00000000	0.0
26	0x00000000	0.0
27	0x00000000	0.0
28	0x00000000	0.0
29	0x00000000	0.0
30	0x00000000	0.0
31	0x00000000	0.0
32	0x00000000	0.0
33	0x00000000	0.0
34	0x00000000	0.0
35	0x00000000	0.0
36	0x00000000	0.0
37	0x00000000	0.0
38	0x00000000	0.0
39	0x00000000	0.0
40	0x00000000	0.0
41	0x00000000	0.0
42	0x00000000	0.0
43	0x00000000	0.0
44	0x00000000	0.0
45	0x00000000	0.0
46	0x00000000	0.0
47	0x00000000	0.0
48	0x00000000	0.0
49	0x00000000	0.0
50	0x00000000	0.0
51	0x00000000	0.0
52	0x00000000	0.0
53	0x00000000	0.0
54	0x00000000	0.0
55	0x00000000	0.0
56	0x00000000	0.0
57	0x00000000	0.0
58	0x00000000	0.0
59	0x00000000	0.0
60	0x00000000	0.0
61	0x00000000	0.0
62	0x00000000	0.0
63	0x00000000	0.0

weight f4 [64, 6]
0	0xbe55e10e	-0.20886633
1	0xbe5b9dc8	-0.21446908
2	0xbe4e5bf0	-0.20152259
3	0x3da51b7c	0.08061883
4	0x3e59e160	0.2127738
5	0x3db0ac40	0.08626604
6	0xbe1d5644	-0.15364939
7	0x3c90fa04	0.017697342
8	0xbe10a44d	-0.14125176
9	0xbe2d8ba4	-0.169478
10	0xbdf89e77	-0.121396
11	0xb991d609	-0.00027816024
12	0x3e8db2be	0.27675432
13	0x3e43ddba	0.1912755
14	0x3e63fe9b	0.22265093
15	0xbe810753	-0.252009
16	0x3d7cc0d9	0.06170735
17	0xbe89668b	-0.26836047
18	0x3d58d901	0.052941326
19	0x3e099503	0.1343575
20	0xbe529c80	-0.20567513
21	0x3e3800bb	0.17969029
22	0xbcde2417	-0.027116818
23	0x3dcc302b	0.09970125
24	0xbe7ff389	-0.24995245
25	0xbd009232	-0.031389423
26	0xbe806713	-0.2507864
27	0xbe8dcd8e	-0.27695888
28	0xbb6e59f5	-0.0036369537
29	0x3e1c460c	0.15261096
30	0x3e3afd2e	0.18260643
31	0xbe823734	-0.25432742
32	0xbe5b9fb6	-0.21447644
33	0xbbe58ba1	-0.0070051705
34	0xba7523d7	-0.0009351349
35	0xbe166fcb	-0.14691083
36	0xbdc48ed3	-0.09597554
37	0xbe4c39b8	-0.19943893
38	0xbd8adffb	-0.06781002
39	0x3e4b4ea0	0.19854212
40	0xbd808d67	-0.0627697
41	0x3e8ab16d	0.2708849
42	0x3e055d00	0.13023758
43	0x3e006919	0.12540092
44	0xbcea008e	-0.028564718
45	0x3e18c9aa	0.14920679
46	0x3e8229e0	0.25422573
47	0x3e869ef5	0.2629315
48	0xbe533ca1	-0.20628597
49	0xbe1fd5ce	-0.15608904
50	0xbe0d494e	-0.13797495
51	0x3dd48000	0.103759766
52	0xbb9e086d	-0.004822782
53	0xbde2c0fa	-0.110719636
54	0xbe4229e4	-0.18961293
55	0x3e1a5036	0.1506966
56	0xba930684	-0.0011217152
57	0x3e4c84d0	0.19972539
58	0x3e0ef5fe	0.13961026
59	0x3dd0f51c	0.10203001
60	0xbc035f5f	-0.008018344
61	0xbe1a4d98	-0.15068662
62	0xbe0c08a6	-0.13675174
63	0xbd872b34	-0.06600037
64	0x3dd19fe8	0.10235578
65	0x3d9abbe5	0.07555369
66	0xbe9314cb	-0.287268
67	0x3d986e9f	0.07442974
68	0xbe914ce1	-0.28378966
69	0xbe192ef2	-0.14959314
70	0x3ddca9fa	0.10774608
71	0xbd23fc0a	-0.040035285
72	0x3db8d2d2	0.09024586
73	0x3e6ecc11	0.23320033
74	0xbe217810	-0.15768456
75	0xbd9113b5	-0.07083837
76	0x3e5e2524	0.21693856
77	0x3e4d9831	0.20077588
78	0x3cee71d2	0.029107008
79	0x3e7b1977	0.24521433
80	0xbdc43bd3	-0.09581723
81	0x3b5dee5e	0.0033864002
82	0xbd64a376	-0.05581995
83	0xbe374398	-0.17896879
84	0x3d31ef1a	0.043440916
85	0x3e71e663	0.23623042
86	0x3e897000	0.26843262
87	0x3e8f3bcb	0.27975306
88	0xbe2cfb55	-0.1689275
89	0xbe58a701	-0.21157457
90	0xbe3846bb	-0.17995732
91	0xbd8ac219	-0.067753024
92	0xbe21e9af	-0.158118
93	0x3d42d676	0.047567807
94	0x3dcb060e	0.09913264
95	0xbded2367	-0.11579018
96	0x3e16c7a2	0.14724591
97	0x3de9e208	0.11420065
98	0x3e94cc2e	0.29062027
99	0xbe3fcbdc	-0.1873011
100	0x3e0681eb	0.13135497
101	0xbe26abd9	-0.16276492
102	0xbd1b3cc0	-0.037899733
103	0xbd543e75	-0.051817376
104	0xbe4ff6ea	-0.20309034
105	0xbe52613e	-0.20544907
106	0xbe7ad240	-0.24494267
107	0xbe135c18	-0.143906
108	0x3e938cda	0.288184
109	0xbe88527a	-0.26625425
110	0x3e1d7301	0.15375902
111	0xbe2f25a1	-0.17104198
112	0x3e52dea1	0.20592739
113	0x3debca2c	0.115131706
114	0xbc9c41e7	-0.019074393
115	0xbad30719	-0.0016100138
116	0x3e475398	0.19465482
117	0xbe3d9b2d	-0.18516226
118	0x3e83b9fa	0.25727826
119	0xbe82a8ab	-0.25519308
120	0x3bdab4c1	0.0066743796
121	0x3d95b632	0.073101416
122	0xbd2b681e	-0.04184734
123	0xbd708e2a	-0.05872933
124	0xbe292455	-0.16517766
125	0xbd36fe9c	-0.04467641
126	0x3e05753d	0.13033004
127	0xbe083efc	-0.13305277
128	0x3cea5181	0.028603317
129	0x3e5feae4	0.21866947
130	0x3d98e463	0.07465436
131	0x3e61fb44	0.22068506
132	0x3e5aeeda	0.21380177
133	0xbe77fce0	-0.24217558
134	0x3e8f8d27	0.28037378
135	0xbd6f7549	-0.05846146
136	0xbbc410c9	-0.0059834463
137	0xbd1211a6	-0.035661362
138	0xbd30c7ce	-0.0431593
139	0xbdc3e335	-0.09564821
140	0x3d9ab18e	0.07553397
141	0xbe85d205	-0.26136795
142	0xbe88b003	-0.26696786
143	0xbc4ac284	-0.012375478
144	0x3e8b4661	0.27202132
145	0x3d17bc1b	0.037044626
146	0xbc57f8e3	-0.013181898
147	0xbdb04ebf	-0.086087696
148	0x3e0f63b5	0.14002879
149	0xbe5bc218	-0.2146076
150	0x3e93bb3b	0.28853783
151	0xbe30b717	-0.17257343
152	0x3e0533c0	0.13008022
153	0x3e1d27fe	0.15347287
154	0x3e16405b	0.14672987
155	0x3dffc28a	0.12488277
156	0x3e3bf98f	0.18356918
157	0xbd84e3d7	-0.064887695
158	0xbe26231b	-0.16224329
159	0xbc44fc2c	-0.012023013
160	0xbe526ca0	-0.2054925
161	0xbdda4666	-0.10657959
162	0x3e060f1b	0.130917
163	0xbe6abed8	-0.22924364
164	0x3e3ae96b	0.18253104
165	0xbcac2b49	-0.021016734
166	0xbd8e3bb3	-0.069449805
167	0x3de3acf8	0.111169755
168	0xbda7ea4a	-0.08198984
169	0x3cb06dda	0.021536756
170	0x3dd23757	0.102644615
171	0x3d1fe779	0.03903911
172	0x3e1ae97c	0.1512813
173	0xbc1d6060	-0.009605497
174	0xbe73aa49	-0.23795427
175	0x3e75dadc	0.2400927
176	0x3de696ba	0.112592176
177	0x3e6b89b0	0.23001742
178	0xbe901c44	-0.28146565
179	0x3dc60fa2	0.096709505
180	0xbd92afb1	-0.07162417
181	0xbe5cd1f5	-0.21564467
182	0xbe3760e8	-0.1790806
183	0xbe1e9029	-0.1548468
184	0x3e563131	0.20917203
185	0x3e7eab21	0.24869968
186	0x3e926510	0.2859273
187	0x3d55da0e	0.052209906
188	0x3e062ba7	0.1310259
189	0xbdf2955f	-0.118448965
190	0xbe0ddab8	-0.13852966
191	0x3e856e86	0.26060885
192	0x3e54806e	0.20752117
193	0x3e9335e3	0.2875205
194	0x3d6ee59c	0.05832444
195	0xbe04e2a2	-0.12977079
196	0x3dd4530b	0.10367402
197	0x3d9a8465	0.075447835
198	0xbe075340	-0.13215351
199	0x3e93de9a	0.2888077
200	0x3e8d4a88	0.27595925
201	0xbe24a6be	-0.16079232
202	0xbd93892f	-0.072039
203	0xbd6fa9cd	-0.058511544
204	0x3e18ece3	0.14934115
205	0xbe89f665	-0.26945797
206	0x3d3676cd	0.04454689
207	0xbd3fde10	-0.046842635
208	0x3e30a4ee	0.17250416
209	0x3e0b11ff	0.13581084
210	0x3db3d64e	0.0878111
211	0xbd98fdb7	-0.07470267
212	0xbdab99e8	-0.08378965
213	0x3e04beb2	0.1296337
214	0xbcef2d69	-0.029196458
215	0xbdbf3d43	-0.093378566
216	0x3d5335de	0.051565044
217	0x3e53eb2a	0.20695177
218	0xbd8b5faa	-0.06805356
219	0xbe0de422	-0.13856557
220	0xbe1d54aa	-0.15364328
221	0xbd9454c0	-0.07242727
222	0x3d6bc3b6	0.05755969
223	0x3d9858b8	0.07438797
224	0x3c31aecd	0.010844898
225	0xbe3b141e	-0.18269393
226	0xbe8f5995	-0.27998033
227	0xbe027acd	-0.12742157
228	0x3dbccdc0	0.09218931
229	0x3e87abd9	0.26498297
230	0x3d8ebdb5	0.069697775
231	0xbe0bf780	-0.13668633
232	0x3e604e07	0.21904765
233	0xbcbb2cde	-0.022848543
234	0xbc871869	-0.016491132
235	0xbd801131	-0.06253279
236	0xbdade98e	-0.08491813
237	0x3db8d76a	0.09025462
238	0x3e70f2e0	0.2353015
239	0x3e8ab4e2	0.27091128
240	0xbe5ef4bc	-0.21773046
241	0x3cf913b4	0.030404903
242	0x3e89607d	0.26831427
243	0x3dd428e2	0.1035936
244	0x3d4a89f0	0.049447954
245	0xbe339b78	-0.17539775
246	0xbdc71060	-0.0971992
247	0xbe9443f7	-0.28958103
248	0x3e28a3ce	0.16468737
249	0x3e8da4be	0.2766475
250	0x3d605a3c	0.054773554
251	0xbe87aa70	-0.2649722
252	0x3e8d0d29	0.27549103
253	0xbdbbc39b	-0.09168168
254	0x3e15a660	0.14614248
255	0xbdab672a	-0.08369286

bias f4 [64]
0	0x00000000	0.0
1	0x00000000	0.0
2	0x00000000	0.0
3	0x00000000	0.0
4	0x00000000	0.0
5	0x00000000	0.0
6	0x00000000	0.0
7	0x00000000	0.0
8	0x00000000	0.0
9	0x00000000	0.0
10	0x00000000	0.0
11	0x00000000	0.0
12	0x00000000	0.0
13	0x00000000	0.0
14	0x00000000	0.0
15	0x00000000	0.0
16	0x00000000	0.0
17	0x00000000	0.0
18	0x00000000	0.0
19	0x00000000	0.0
20	0x00000000	0.0
21	0x00000000	0.0
22	0x00000000	0.0
23	0x00000000	0.0
24	0x00000000	0.0
25	0x00000000	0.0
26	0x00000000	0.0
27	0x00000000	0.0
28	0x00000000	0.0
29	0x00000000	0.0
30	0x00000000	0.0
31	0x00000000	0.0
32	0x00000000	0.0
33	0x00000000	0.0
34	0x00000000	0.0
35	0x00000000	0.0
36	0x00000000	0.0
37	0x00000000	0.0
38	0x00000000	0.0
39	0x00000000	0.0
40	0x00000000	0.0
41	0x00000000	0.0
42	0x00000000	0.0
43	0x00000000	0.0
44	0x00000000	0.0
45	0x00000000	0.0
46	0x00000000	0.0
47	0x00000000	0.0
48	0x00000000	0.0
49	0x00000000	0.0
50	0x00000000	0.0
51	0x00000000	0.0
52	0x00000000	0.0
53	0x00000000	0.0
54	0x00000000	0.0
55	0x00000000	0.0
56	0x00000000	0.0
57	0x00000000	0.0
58	0x00000000	0.0
59	0x00000000	0.0
60	0x00000000	0.0
61	0x00000000	0.0
62	0x00000000	0.0
63	0x00000000	0.0

weight f4 [64, 64]
0	0x3e3a8ec7	0.18218528
1	0x3e11d2cf	0.14240573
2	0xbe2d203b	-0.16906826
3	0xbcb8b82e	-0.022548761
4	0xbdfb1a89	-0.122609206
5	0xbd518ef9	-0.05116174
6	0xbe432ac2	-0.1905928
7	0xbe03943c	-0.12849516
8	0xbe15868c	-0.14602107
9	0xbd4a3e38	-0.049375743
10	0xbe31c317	-0.17359577
11	0xbe1b7263	-0.15180354
12	0x3df29e6c	0.11846623
13	0xbcb6a369	-0.022294717
14	0x3e3967f6	0.18106064
15	0x3e576144	0.21033198
16	0xbe31a0e0	-0.17346525
17	0x3dc1fc2b	0.09471925
18	0x3ae85bd2	0.001772756
19	0x3daea138	0.08526844
20	0x3d3ea71b	0.046546083
21	0x3ddbca3d	0.10731933
22	0x3c743295	0.014904638
23	0x3c4ba057	0.012428365
24	0xbdeb128c	-0.11478147
25	0xbe1bdd41	-0.1522112
26	0x3e52d067	0.20587312
27	0xbe5b3cf9	-0.21409978
28	0xbdabf4a0	-0.08396268
29	0xbe294afd	-0.16532512
30	0x3cc25a59	0.023724722
31	0x3e134921	0.14383365
32	0x3ccd7845	0.025081763
33	0xbba81edd	-0.0051306323
34	0xbdbae593	-0.09125819
35	0xbdb517bc	-0.088424176
36	0xbc89415b	-0.016754797
37	0xbdaa736f	-0.083227985
38	0x3e579a1b	0.2105488
39	0xbe4c33b7	-0.19941603
40	0x3c4dca0e	0.012560381
41	0x3e5b6aaa	0.21427408
42	0x3d0f740d	0.035022784
43	0x3de85c1b	0.11345693
44	0xbd6995f8	-0.057027787
45	0x3df2c665	0.11854247
46	0xbdb14a36	-0.08656733
47	0x3e2b1839	0.16708459
48	0x3d292bcb	0.04130153
49	0xbe388b3e	-0.18021867
50	0x3e1d85f4	0.1538313
51	0x3e592b1a	0.21207848
52	0xbe297d5c	-0.16551727
53	0xbd3595f1	-0.04433245
54	0xbe4b426d	-0.19849558
55	0x3d0f52ed	0.034991194
56	0x3dfabc23	0.122429155
57	0x3e0a00b9	0.13476838
58	0x3d1ed947	0.03878143
59	0x3da4af17	0.08041208
60	0xbe2e4d51	-0.17021681
61	0xbd399148	-0.045304567
62	0xbe489fe3	-0.19592242
63	0xbe34a477	-0.17640863
64	0xbd68571c	-0.0567237
65	0xbdaa7c56	-0.083244964
66	0xbe04e7b7	-0.12979017
67	0x3d376f7f	0.044784065
68	0x3dc08b26	0.094015405
69	0xbcb212c4	-0.021737464
70	0xbdd8029e	-0.10547374
71	0xbd95c5e1	-0.07313133
72	0x3dc34a1a	0.09535618
73	0xbd2481b4	-0.040162757
74	0x3e44dc61	0.19224693
75	0xbe41f624	-0.18941551
76	0x3c9c478f	0.01907709
77	0x3e4b2ea9	0.19842018
78	0x3c5988e6	0.013277268
79	0xbca8a010	-0.020584136
80	0x3d8e2b65	0.069418706
81	0x3c9f1763	0.019420331
82	0xbd80a9a7	-0.062823586
83	0xbe1b537d	-0.15168567
84	0x3df40880	0.11915684
85	0x3e479a84	0.19492537
86	0x3e5c2a21	0.21500446
87	0xbdcab7c2	-0.0989833
88	0xbe588898	-0.21145856
89	0x3e54608f	0.20739959
90	0x3e2f6730	0.17129207
91	0xbe31f6c6	-0.17379293
92	0xbdb14e15	-0.08657471
93	0xbdecab84	-0.115561515
94	0x3dc3399c	0.095324725
95	0x3c838e60	0.0160591
96	0xbe0370f8	-0.12836063
97	0x3d658de3	0.056043517
98	0x3e3b1897	0.18271099
99	0x3dd1a534	0.10236588
100	0xbd341034	-0.043960765
101	0xbe0e420f	-0.13892387
102	0xbe10d802	-0.141449
103	0xbe1f4f8d	-0.1555769
104	0xbde4bc3a	-0.11168714
105	0xbe3030fc	-0.17206186
106	0x3deb7cb4	0.114983946
107	0xbda1e2e0	-0.07904601
108	0x3d5fd059	0.054642055
109	0xbdbe2fa6	-0.09286432
110	0xbde74214	-0.112919
111	0x3e402d5e	0.18767306
112	0xbd9e289c	-0.077225894
113	0x3e311e96	0.17296824
114	0xbe471df7	-0.19445024
115	0x3dead324	0.11466053
116	0x3d6ee2ed	0.058321882
117	0xbdcb6fe2	-0.09933449
118	0xbce1b552	-0.02755228
119	0xbdc1fc47	-0.09471946
120	0xbda330a5	-0.079682626
121	0x3e3452f8	0.17609775
122	0x3def28b1	0.11677683
123	0xbe4439a9	-0.1916262
124	0xbde79fc2	-0.11309768
125	0xbc0307fa	-0.007997507
126	0xbce3cd3b	-0.027807822
127	0x3d01c4f3	0.031681966
128	0xbd63fbc7	-0.055660035
129	0x3e4a3520	0.19746828
130	0xbdebca06	-0.11513142
131	0xbe0d0d81	-0.13774683
132	0xbb1662ba	-0.002294703
133	0x3e28b069	0.16473545
134	0x3e5cc249	0.21558489
135	0x3c99edba	0.018790115
136	0x3ca7c2d9	0.020478653
137	0x3d4ca3e8	0.049961
138	0x3dcb18ba	0.099168256
139	0xbc847bd4	-0.016172327
140	0x3e19e60a	0.15029159
141	0xbd2d9e36	-0.04238721
142	0x3e0182b5	0.12647517
143	0xbdeb222d	-0.11481128
144	0x3e02617f	0.12732504
145	0xbe271a80	-0.16318703
146	0xbe2e811f	-0.17041443
147	0xbd740177	-0.05957171
148	0xbdff4860	-0.12464976
149	0xbe523f43	-0.20531945
150	0xbcc095da	-0.023508955
151	0x3dd6632f	0.104681365
152	0xbd5fa998	-0.054605097
153	0x3dc9d023	0.09854152
154	0x3e3bc030	0.18335032
155	0xbd496dc0	-0.04917693
156	0xbe3b3607	-0.18282329
157	0x3c3b2bc7	0.011424012
158	0x3e063142	0.13104728
159	0xbdbd2d16	-0.09237115
160	0x3d2b6e22	0.041853078
161	0xbe4c90de	-0.19977137
162	0xbda38840	-0.07984972
163	0xbd9ed50b	-0.077554785
164	0xbe46ad31	-0.19402005
165	0xbd362e2c	-0.044477627
166	0x3d9c39bb	0.07628199
167	0xbe01726d	-0.12641306
168	0xbcea2731	-0.028583141
169	0x3d2df73f	0.04247212
170	0x3e104623	0.14089255
171	0xbd097830	-0.033561885
172	0xbc9044a1	-0.01761085
173	0xbd620fcb	-0.055190843
174	0x3e5b2c72	0.21403673
175	0x3c43a65d	0.01194152
176	0x3b761017	0.0037546211
177	0xbd897de2	-0.06713463
178	0xbce0e1b0	-0.027451366
179	0xbdd07282	-0.10178091
180	0xbe18a8c3	-0.14908127
181	0xbdbb88a2	-0.0915692
182	0xbe57f191	-0.21088244
183	0xbe014151	-0.12622572
184	0xbe5a50b1	-0.21319844
185	0x3c81cfd4	0.01584617
186	0x3db92afb	0.09041401
187	0xbe0c2137	-0.13684545
188	0xbe2175c8	-0.15767586
189	0x3e11b250	0.14228177
190	0x3d678ebc	0.056532606
191	0xbe5acef1	-0.21368004
192	0x3e2ca3cd	0.1685936
193	0x3e3ba46b	0.18324439
194	0xbe12ab3f	-0.14323138
195	0x3dff4edb	0.12466212
196	0xbe41da12	-0.18930843
197	0xbe027ae0	-0.12742186
198	0x3e37d873	0.17953663
199	0x3dc3cf1f	0.095609896
200	0x3d61b6bb	0.055105906
201	0x3bf00a90	0.007325478
202	0x3e2dc072	0.16967943
203	0xbe3efdd5	-0.18651517
204	0xbd735e61	-0.05941618
205	0x3dfd0bc8	0.12355763
206	0x3e180bba	0.14848223
207	0xbe256a8b	-0.16153924
208	0x3e1a044d	0.15040703
209	0x3d937809	0.07200629
210	0xbdea6890	-0.11445725
211	0x3df9817c	0.121829
212	0xbe4a336f	-0.19746183
213	0x3d591c5f	0.053005572
214	0xbda552fc	-0.08072469
215	0xbe43916a	-0.1909844
216	0x3da756ef	0.08170878
217	0xbd233882	-0.039848812
218	0x3d9bff2a	0.07617028
219	0x3e180622	0.1484609
220	0x3d98f0ed	0.07467828
221	0x3d49a687	0.04923108
222	0x3d0e488a	0.034737147
223	0xbe2c467e	-0.16823766
224	0xbd06a6fa	-0.032874085
225	0x3dd2809b	0.10278436
226	0x3ddfd298	0.109288394
227	0x3e456bb1	0.19279362
228	0xbd176758	-0.03696379
229	0x3d2485af	0.040166553
230	0x3d326363	0.043551814
231	0xbc01d48a	-0.007924208
232	0x3d935b33	0.07195129
233	0xbc8bdb39	-0.017072307
234	0x3e2dd18c	0.16974467
235	0xbe52c3f6	-0.20582566
236	0x3e3b852d	0.18312521
237	0x3d9b7d88	0.075923026
238	0x3a9042c9	0.0011006232
239	0x3e238af1	0.1597097
240	0xbcde45b6	-0.02713285
241	0xbe07788b	-0.13229577
242	0x3c1795d7	0.009252033
243	0x3e1ed673	0.15511493
244	0x3e5a0af5	0.21293242
245	0xbde07b82	-0.10961057
246	0x3dfe9df8	0.12432474
247	0xbdf20e6b	-0.11819156
248	0x3dd84091	0.1055919
249	0x3e1dffd5	0.15429623
250	0x3d83062a	0.0639766
251	0xbe45d6f3	-0.19320278
252	0xbe4f3c08	-0.20237744
253	0xbd96799c	-0.07347414
254	0xbd704f9a	-0.058669664
255	0x3d681ddf	0.056669112

bias f4 [64]
0	0x00000000	0.0
1	0x00000000	0.0
2	0x00000000	0.0
3	0x00000000	0.0
4	0x00000000	0.0
5	0x00000000	0.0
6	0x00000000	0.0
7	0x00000000	0.0
8	0x00000000	0.0
9	0x00000000	0.0
10	0x00000000	0.0
11	0x00000000	0.0
12	0x00000000	0.0
13	0x00000000	0.0
14	0x00000000	0.0
15	0x00000000	0.0
16	0x00000000	0.0
17	0x00000000	0.0
18	0x00000000	0.0
19	0x00000000	0.0
20	0x00000000	0.0
21	0x00000000	0.0
22	0x00000000	0.0
23	0x00000000	0.0
24	0x00000000	0.0
25	0x00000000	0.0
26	0x00000000	0.0
27	0x00000000	0.0
28	0x00000000	0.0
29	0x00000000	0.0
30	0x00000000	0.0
31	0x00000000	0.0
32	0x00000000	0.0
33	0x00000000	0.0
34	0x00000000	0.0
35	0x00000000	0.0
36	0x00000000	0.0
37	0x00000000	0.0
38	0x00000000	0.0
39	0x00000000	0.0
40	0x00000000	0.0
41	0x00000000	0.0
42	0x00000000	0.0
43	0x00000000	0.0
44	0x00000000	0.0
45	0x00000000	0.0
46	0x00000000	0.0
47	0x00000000	0.0
48	0x00000000	0.0
49	0x00000000	0.0
50	0x00000000	0.0
51	0x00000000	0.0
52	0x00000000	0.0
53	0x00000000	0.0
54	0x00000000	0.0
55	0x00000000	0.0
56	0x00000000	0.0
57	0x00000000	0.0
58	0x00000000	0.0
59	0x00000000	0.0
60	0x00000000	0.0
61	0x00000000	0.0
62	0x00000000	0.0
63	0x00000000	0.0

weight f4 [64, 64]
0	0xbd9b63dd	-0.07587407
1	0xbe1e1aef	-0.15439962
2	0xbe4e0076	-0.20117363
3	0xbe3136f1	-0.17306115
4	0x3e0ce2a8	0.13758337
5	0x3d350f69	0.04420415
6	0xbdc84719	-0.09779186
7	0xbe0b6c24	-0.13615471
8	0xbc0042d0	-0.007828429
9	0xbd49448f	-0.04913765
10	0xbe500f3f	-0.20318316
11	0xbe3bcc5c	-0.18339676
12	0x3e111149	0.1416675
13	0xbcf4fb8e	-0.029905107
14	0x3e4456a0	0.1917367
15	0x3e531071	0.2061174
16	0xbdb6ee83	-0.08932211
17	0xbd2a499b	-0.041574102
18	0x3c0555d9	0.008138143
19	0x3e0aa405	0.13539131
20	0xbe219d57	-0.15782677
21	0xbdd6a82b	-0.10481294
22	0x3e45e9aa	0.19327417
23	0x3cf74989	0.030186431
24	0x3e538067	0.2065445
25	0x3cefb412	0.029260669
26	0x3d11c053	0.035583805
27	0x3dd3f169	0.1034878
28	0xbe2854b0	-0.16438556
29	0x3e2a3e46	0.16625318
30	0x3dc015f3	0.093791865
31	0x3dc449ad	0.09584365
32	0x3e465763	0.19369273
33	0x3d7248bd	0.0591514
34	0xbcde1c40	-0.02711308
35	0x3e51311f	0.20428894
36	0xbe3368bb	-0.1752042
37	0xbe332892	-0.17495945
38	0x3e4f82ab	0.2026469
39	0x3d0b203e	0.033966295
40	0x3e4f4826	0.20242366
41	0x3ce3ec23	0.02782256
42	0x3e0e7aa8	0.13913977
43	0x3e387471	0.18013169
44	0xbe43e65a	-0.19130841
45	0x3e02e16d	0.12781306
46	0x3dd8113b	0.105501615
47	0xbdf6a5d1	-0.12043346
48	0x3cb01e79	0.021498905
49	0xbe43cd78	-0.19121349
50	0xbe148672	-0.14504412
51	0xbe0f2dcf	-0.13982318
52	0xbe305acf	-0.1722214
53	0xbcc977fb	-0.024593344
54	0x3d15d69e	0.036581628
55	0x3e31dcfc	0.17369455
56	0x396e1367	0.00022704677
57	0x3d91b1b9	0.07113976
58	0x3d8a0c7b	0.06740662
59	0xbd375f18	-0.044768423
60	0x3ddbf8f3	0.10740843
61	0x3e151eb8	0.145625
62	0x3d15dad7	0.036585655
63	0x3d2ad5fc	0.041707978
64	0xbd1b4938	-0.037911624
65	0xbe4c4418	-0.1994785
66	0xbddf501f	-0.10903954
67	0x3e56b018	0.20965612
68	0x3e2a3cb4	0.16624719
69	0xbdb1b3db	-0.08676883
70	0x3e4a517e	0.1975765
71	0xbe4e5d8f	-0.20152877
72	0xbddd8941	-0.10817195
73	0x3dc7ed01	0.09762002
74	0xbd50e557	-0.050999966
75	0xbdd24fb0	-0.102691054
76	0xbc3d44ee	-0.011552079
77	0xbdf4d09f	-0.11953854
78	0x3de41c48	0.11138207
79	0x3de41fe5	0.11138896
80	0xbe4561bc	-0.19275564
81	0xbe4d6ab5	-0.20060237
82	0xbbf96ea6	-0.0076120673
83	0x3e53ec0c	0.20695513
84	0x3e0103f3	0.12599163
85	0xbe4a9edb	-0.19787161
86	0xbdf9c64b	-0.121960245
87	0x3e0d9986	0.13828096
88	0xbda6aae1	-0.08138061
89	0xbe11cfbf	-0.14239405
90	0x3db9ffa9	0.090819664
91	0xbd443650	-0.04790336
92	0xbe5ae085	-0.2137471
93	0x3d2bf00a	0.041976966
94	0x3c0c97b1	0.008581088
95	0xbd80c83c	-0.06288192
96	0x3cd3d4c7	0.025858296
97	0xbe569cbd	-0.20958228
98	0x3ca20d98	0.019781873
99	0x3ce9c964	0.028538413
100	0x3e0723b8	0.1319722
101	0x3e045b68	0.12925494
102	0x3d24dcf6	0.040249787
103	0x3c88aa74	0.01668284
104	0xbe48ba27	-0.19602261
105	0xbde2cf67	-0.11074715
106	0xbe5c635b	-0.21522276
107	0x3d8e14eb	0.069375835
108	0xbe245fe9	-0.16052212
109	0xbe557b4f	-0.2084782
110	0xbdd8bf9a	-0.1058342
111	0x3d692007	0.05691531
112	0x3e475557	0.19466148
113	0x3d87d570	0.06632507
114	0x3da96b6b	0.082724415
115	0xbe5c23b2	-0.21497992
116	0xbe3c54d1	-0.1839173
117	0xbd5c440d	-0.053775836
118	0x3e25f604	0.16207129
119	0xbd028a53	-0.031870198
120	0xbcc325b4	-0.02382169
121	0xbe249650	-0.16072965
122	0x3e4975ca	0.19673839
123	0x3d89a527	0.067209534
124	0xbdfc420a	-0.123172835
125	0xbd342936	-0.043984614
126	0xbe09c4b7	-0.13453947
127	0xbe2daec6	-0.16961202
128	0xbd966935	-0.073442854
129	0x3e362534	0.1778763
130	0xbe342e38	-0.17595756
131	0x3c3fd066	0.011707401
132	0xbe1c4a8e	-0.15262815
133	0xbe006abd	-0.12540717
134	0x3dbabd7b	0.09118172
135	0x3b060d1f	0.0020454598
136	0xbc821e0b	-0.015883466
137	0xbe1bca27	-0.15213834
138	0xbe07376d	-0.13204737
139	0xbd2ffeba	-0.042967536
140	0xbe265a07	-0.1624528
141	0xbddab280	-0.106785774
142	0x3e20afc9	0.15692057
143	0x3dc347bc	0.095351666
144	0xbe476721	-0.19472934
145	0x3d22ea7c	0.039774403
146	0xbdb7a75b	-0.089674674
147	0x3cc3655b	0.023852041
148	0x3d7b5afc	0.061366066
149	0xbe4d724e	-0.20063135
150	0x3daf64d5	0.08564154
151	0x3e322b37	0.17399298
152	0xbd6b3b89	-0.057429824
153	0xbda95309	-0.08267791
154	0xbe2bc2f2	-0.16773584
155	0x3b45ecfb	0.0030201066
156	0xbd48c9fd	-0.049020756
157	0xbe072737	-0.13198553
158	0x3dc686eb	0.09693702
159	0xbe49e32d	-0.19715567
160	0xbe1d5c57	-0.15367256
161	0x3e033dd0	0.12816548
162	0x3e148a20	0.14505816
163	0x3e5491f3	0.207588
164	0x3e145916	0.14487109
165	0x3d83d119	0.064363666
166	0x3de1766d	0.11008916
167	0xbe1855af	-0.14876436
168	0xbe1a51dc	-0.1507029
169	0xbe0bf413	-0.13667326
170	0x3d699be6	0.057033442
171	0xbc2dee0c	-0.010615837
172	0xbe519e39	-0.20470513
173	0x3e32fed6	0.17480025
174	0xbdd0ddd4	-0.1019856
175	0x3e09c288	0.13453114
176	0xbbb93143	-0.0056516244
177	0x3d34a197	0.044099417
178	0x3e15e43f	0.1463785
179	0x3d7635e5	0.06010999
180	0x3ce254e3	0.027628368
181	0xbd2b98de	-0.041893832
182	0xbdd01e5b	-0.1016204
183	0x3e1dbc3d	0.15403838
184	0xbbcdf786	-0.0062856106
185	0x3d83ffdd	0.064452864
186	0x3daaf742	0.08347942
187	0x3dc3b164	0.09555319
188	0xbe532e02	-0.2062302
189	0x3e5989fc	0.21244043
190	0xbda280b1	-0.07934702
191	0x3e134805	0.14382942
192	0x3e1d2d36	0.15349278
193	0xbdea05dd	-0.114268996
194	0xbe42c3c5	-0.19019993
195	0x3e399515	0.18123277
196	0x3d1a4640	0.037664652
197	0xbe4067b0	-0.18789554
198	0x3e4630e2	0.19354585
199	0x3e52db3a	0.20591441
200	0x3deea98d	0.11653433
201	0xbe3bc923	-0.18338446
202	0xbdf86afa	-0.12129779
203	0x3c429f6a	0.011878828
204	0x3c8554c4	0.016275771
205	0x3e07f454	0.13276798
206	0x3e3d3dbf	0.18480586
207	0xbe261d9f	-0.16222237
208	0x3e3af80a	0.18258682
209	0xbc207c23	-0.0097952215
210	0x3e32da8a	0.17466179
211	0xbdc26f3e	-0.09493874
212	0xbe171df5	-0.14757521
213	0x39c11544	0.00036827673
214	0xbe20c484	-0.15699965
215	0xbe3ba227	-0.18323575
216	0x3ca9770e	0.020686653
217	0x3ddf1002	0.10891725
218	0xbdc3b28e	-0.09555541
219	0x3ce39929	0.027782993
220	0x3e4a08cd	0.1972992
221	0xbcaeb4da	-0.021326471
222	0xbe2d8ea6	-0.16948947
223	0x3e0cf00c	0.13763446
224	0x3d27ca21	0.04096425
225	0x3d89b1e3	0.06723382
226	0x3ca80b53	0.020513212
227	0x3e094166	0.13403854
228	0xbc5df2bc	-0.013546642
229	0xbdbf8cff	-0.09353065
230	0x3dc5b598	0.09653777
231	0xbd4cc9c4	-0.049997106
232	0xbe107e6a	-0.14110723
233	0xbe315421	-0.17317249
234	0x3cff6ade	0.031178888
235	0xbe0eba78	-0.1393832
236	0xbe1392f2	-0.14411524
237	0xbe1d5935	-0.15366061
238	0xbc271c08	-0.010199554
239	0x3d9a0951	0.07521308
240	0x3d9c7062	0.07638623
241	0x3d8fb35d	0.07016633
242	0xbd2ddd7c	-0.042447552
243	0xbdce2e15	-0.10067383
244	0xbe44259a	-0.19154969
245	0xbe209110	-0.15680337
246	0x3e3f8ca3	0.18705992
247	0x3e45d986	0.1932126
248	0x3b919eb6	0.0044439686
249	0xbdb9ef46	-0.09078841
250	0xbe047c1e	-0.12937972
251	0x3e2e10b5	0.1699856
252	0xbcca55f4	-0.024699189
253	0x3e5938c8	0.21213067
254	0xbe5a7cfb	-0.21336739
255	0xbcbed6ee	-0.023295846

bias f4 [64]
0	0x00000000	0.0
1	0x00000000	0.0
2	0x00000000	0.0
3	0x00000000	0.0
4	0x00000000	0.0
5	0x00000000	0.0
6	0x00000000	0.0
7	0x00000000	0.0
8	0x00000000	0.0
9	0x00000000	0.0
10	0x00000000	0.0
11	0x00000000	0.0
12	0x00000000	0.0
13	0x00000000	0.0
14	0x00000000	0.0
15	0x00000000	0.0
16	0x00000000	0.0
17	0x00000000	0.0
18	0x00000000	0.0
19	0x00000000	0.0
20	0x00000000	0.0
21	0x00000000	0.0
22	0x00000000	0.0
23	0x00000000	0.0
24	0x00000000	0.0
25	0x00000000	0.0
26	0x00000000	0.0
27	0x00000000	0.0
28	0x00000000	0.0
29	0x00000000	0.0
30	0x00000000	0.0
31	0x00000000	0.0
32	0x00000000	0.0
33	0x00000000	0.0
34	0x00000000	0.0
35	0x00000000	0.0
36	0x00000000	0.0
37	0x00000000	0.0
38	0x00000000	0.0
39	0x00000000	0.0
40	0x00000000	0.0
41	0x00000000	0.0
42	0x00000000	0.0
43	0x00000000	0.0
44	0x00000000	0.0
45	0x00000000	0.0
46	0x00000000	0.0
47	0x00000000	0.0
48	0x00000000	0.0
49	0x00000000	0.0
50	0x00000000	0.0
51	0x00000000	0.0
52	0x00000000	0.0
53	0x00000000	0.0
54	0x00000000	0.0
55	0x00000000	0.0
56	0x00000000	0.0
57	0x00000000	0.0
58	0x00000000	0.0
59	0x00000000	0.0
60	0x00000000	0.0
61	0x00000000	0.0
62	0x00000000	0.0
63	0x00000000	0.0

weight f4 [64, 64]
0	0x3cc01cfd	0.023451323
1	0x3e4d5fc2	0.2005606
2	0x3dd94e4a	0.106106356
3	0xbe263da0	-0.16234446
4	0x3e36972e	0.17831108
5	0x3c4e8920	0.012605935
6	0xbd993d8b	-0.074824415
7	0xbd616b2b	-0.055033844
8	0x3d94040c	0.072273344
9	0xbe163fc4	-0.14672762
10	0xbdf4f789	-0.11961276
11	0xbe3251ae	-0.17413971
12	0xbe070684	-0.1318608
13	0x3dacd3c0	0.084388256
14	0xbd4f8430	-0.050663173
15	0xbe09d947	-0.13461791
16	0x3e32fe4f	0.17479824
17	0x3e182787	0.14858828
18	0xbe2b4a1b	-0.16727488
19	0xbe2b1648	-0.16707718
20	0x3d9d9797	0.07694929
21	0x3d3a2582	0.045445926
22	0x3dc32977	0.09529393
23	0xbe4f51be	-0.20246026
24	0x3b2eada7	0.0026653798
25	0x3e1b206d	0.15149088
26	0x3dadda08	0.08488852
27	0x3e0ef6c6	0.13961324
28	0x3e2c097c	0.16800493
29	0x3bdc2880	0.006718695
30	0xbe2b095d	-0.1670279
31	0xbd2b3191	-0.041795317
32	0xbd234e21	-0.03986943
33	0x3c9c43d3	0.01907531
34	0xbb17fc5b	-0.0023191187
35	0x3d365541	0.0445149
36	0x3c32dc47	0.010916776
37	0xbcc905d4	-0.024538912
38	0xbc93a07b	-0.018020859
39	0xbd3042d8	-0.043032497
40	0x3c815651	0.01578823
41	0x3e3248ef	0.17410634
42	0x3dce0f23	0.10061481
43	0x3dd3f32b	0.10349115
44	0x3da2410e	0.079225644
45	0x3c6f9329	0.014622488
46	0x3d99687e	0.074906334
47	0x3d140aa0	0.036142945
48	0xbd55f853	-0.052238774
49	0x3df022ad	0.11725364
50	0x3e42b7ce	0.19015428
51	0x3db02d93	0.086024426
52	0xbe4f6bad	-0.20255919
53	0xbe2f9d55	-0.17149861
54	0x3e3435c3	0.17598633
55	0x3c4475c6	0.01199097
56	0xbdffbcec	-0.12487206
57	0x3ddd9de1	0.10821129
58	0x3dead0cc	0.11465606
59	0x3d708e7f	0.058729645
60	0xbe0a5aa2	-0.13511136
61	0x3d6bac86	0.057537578
62	0x3e262bdd	0.1622767
63	0x3c37f869	0.011228659
64	0x3e4fb4fa	0.20283881
65	0x3e098edf	0.13433407
66	0xbdbc8151	-0.09204353
67	0xbdfade02	-0.12249376
68	0xbd978b42	-0.07399608
69	0xbc47816a	-0.012176851
70	0xbaad293e	-0.0013211144
71	0xbce97625	-0.028498719
72	0x3df0b288	0.11752802
73	0x3df25e86	0.11834435
74	0x3e5bfb26	0.21482524
75	0xbcc07f48	-0.023498192
76	0x3d72c819	0.05927286
77	0xbe30c462	-0.17262414
78	0xbd132126	-0.035920285
79	0xbe2db56c	-0.16963738
80	0xbd616668	-0.055029303
81	0xbe2ec208	-0.17066205
82	0x3e56cc16	0.2097629
83	0x3d364a2f	0.04450434
84	0xbdf30091	-0.118653424
85	0xbc58a027	-0.013221777
86	0xbcd864c6	-0.02641524
87	0x3e09e696	0.13466868
88	0x3e4cffea	0.20019498
89	0xbe458aca	-0.19291225
90	0x3e039786	0.1285077
91	0x3cee55c3	0.029093629
92	0xbe13b871	-0.14425828
93	0xbe4348d1	-0.19070746
94	0xbcab7e4b	-0.020934245
95	0x3e4e1cf2	0.2012823
96	0x3ddba876	0.10725491
97	0xbe4bd706	-0.19906244
98	0x3d93f294	0.072240025
99	0x3e59ab97	0.21256863
100	0x3d87b97e	0.06627177
101	0xbe3d9fe5	-0.18518026
102	0xbe229a12	-0.15879086
103	0xbd7746e2	-0.060370333
104	0xbe065ffa	-0.1312255
105	0xbe3f129e	-0.18659446
106	0xbd99d2c2	-0.07510902
107	0x3ded062a	0.11573441
108	0xbdba29cc	-0.09090003
109	0xbdd689a3	-0.10475471
110	0x3e4d5484	0.20051771
111	0xbe1c769d	-0.15279622
112	0x3d606979	0.054788087
113	0x3e42171b	0.18954127
114	0x3cc32e18	0.02382569
115	0xbdfae504	-0.122507125
116	0xbe29437e	-0.16529652
117	0xbdb1b126	-0.086763665
118	0xbe35978d	-0.17733593
119	0xbe459f32	-0.1929901
120	0x3d81d587	0.06339555
121	0x3e57e4ff	0.21083449
122	0xbdd3eb06	-0.103475615
123	0xbdb8e0e9	-0.09027273
124	0x3c3bad5b	0.011454905
125	0xbe57df38	-0.21081245
126	0x3e16ed68	0.14739001
127	0x3ddf3ef0	0.10900676
128	0xbe18eadd	-0.14933343
129	0x3e564ea9	0.20928444
130	0xbd24cb96	-0.040233217
131	0xbdbe312a	-0.09286721
132	0xbd9bbd89	-0.0760451
133	0xbddcf5bc	-0.107890576
134	0xbdfe4147	-0.124147944
135	0x3d1de508	0.0385485
136	0xbc5737e3	-0.013135883
137	0x3d85377f	0.06504726
138	0xbe0e3246	-0.13886365
139	0x3daa4e93	0.08315768
140	0xbd9cc981	-0.07655621
141	0xbe490c70	-0.19633651
142	0x3da7fb2e	0.082022056
143	0xbde2ab8f	-0.110678785
144	0xbdfd8bca	-0.12380178
145	0xbd86b355	-0.065771736
146	0xbd0b6926	-0.034035824
147	0x3e3aeb68	0.18253863
148	0xbe168e5a	-0.1470274
149	0x3d128ad0	0.035776913
150	0xbe4a0084	-0.19726759
151	0xbe409975	-0.18808539
152	0x3d1ec316	0.038760267
153	0xbdf83507	-0.12119489
154	0x3db9c62a	0.09071
155	0xbdc0e135	-0.09417955
156	0xbe4e1c3a	-0.20127955
157	0xbe3e581f	-0.18588303
158	0x3d84510e	0.064607725
159	0xbdac968c	-0.08427152
160	0x3d12c074	0.03582807
161	0xbe511887	-0.20419513
162	0x3e0cf2a5	0.13764437
163	0xbde20798	-0.11036605
164	0xbce44a96	-0.027867597
165	0xbdd225ff	-0.102611534
166	0xbe2e92a9	-0.17048134
167	0x3e4aa6b2	0.19790152
168	0x3db30a3f	0.08742189
169	0x3e04c5f1	0.12966134
170	0x3d3b874e	0.045783333
171	0xbe39aa2b	-0.1813132
172	0x3e47d2fd	0.1951408
173	0xbd543d00	-0.051815987
174	0xbc8be7ff	-0.017078398
175	0xbda9f2ca	-0.082982615
176	0x3db73a4e	0.089466676
177	0xbdaf5c6a	-0.085625485
178	0xbdab5c15	-0.08367173
179	0x3e4e9b6e	0.20176479
180	0xbd8c2791	-0.06843484
181	0x3e05b9e7	0.13059197
182	0x3e3e74a1	0.18599178
183	0x3d5f1727	0.05446544
184	0x3cdc4fd9	0.026893543
185	0xbe1faa8d	-0.15592404
186	0x3dddef2d	0.10836635
187	0xbdeead6f	-0.116541736
188	0xbd0766f7	-0.03305718
189	0xbe22dc14	-0.15904266
190	0xbe03e4d0	-0.12880254
191	0xbe194add	-0.14969964
192	0x3d83a7ec	0.06428513
193	0x3d00311d	0.031296838
194	0x3dba097f	0.090838425
195	0x3d9e5a7c	0.07732102
196	0xbda55e84	-0.08074668
197	0x3c9c5b27	0.019086434
198	0x3e41e20c	0.18933886
199	0x3e5a2a73	0.21305256
200	0xbddd84d8	-0.108163536
201	0x3e1818e1	0.1485324
202	0x3e137136	0.14398655
203	0xbdc087d9	-0.09400911
204	0xbadc6b9e	-0.001681674
205	0xbca58831	-0.020206543
206	0x3dc7f65b	0.097637855
207	0xbbb55365	-0.005533623
208	0x3dda2afe	0.10652731
209	0xbdd2a49a	-0.102853015
210	0x3e295141	0.16534902
211	0x3d1eeee7	0.038802054
212	0x3e066dad	0.13127775
213	0xbe3d3ce4	-0.18480259
214	0xbd44bf02	-0.04803372
215	0x3e425952	0.18979385
216	0xbca1aedf	-0.019736705
217	0x3cb99e8b	0.022658607
218	0x3ca47695	0.020076076
219	0xbc50713d	-0.012722311
220	0x3da78328	0.08179313
221	0x3e49211d	0.19641538
222	0x3e4605e6	0.19338188
223	0x3d83ab21	0.064291246
224	0xbc254730	-0.010087773
225	0xbcc97747	-0.024593009
226	0x3e0d39d4	0.13791591
227	0x3d3c82f8	0.04602334
228	0xbd096f64	-0.033553496
229	0x3be84b95	0.007089088
230	0xbe36bcd8	-0.17845476
231	0xbe0d7808	-0.1381532
232	0x3dd1e9f9	0.10249705
233	0x3e07719b	0.13226931
234	0x3bae6ac1	0.0053227847
235	0x3e349031	0.1763313
236	0x3e258d2e	0.16167137
237	0x3df34729	0.11878807
238	0x3dcb1050	0.09915221
239	0x3e177e59	0.14794292
240	0xbc9edbf5	-0.019391993
241	0xbce8d9d4	-0.028424181
242	0xbdd494dc	-0.10379955
243	0xbe29d096	-0.16583475
244	0xbe5c2b2c	-0.21500844
245	0xbe48ac77	-0.1959704
246	0x3d3cc885	0.046089668
247	0xbd453423	-0.048145425
248	0xbe3968db	-0.18106405
249	0xbd66f2f5	-0.056384046
250	0x3e16c441	0.14723302
251	0x3e18951f	0.14900635
252	0x3e405a87	0.18784533
253	0x3e4ca402	0.19984439
254	0x3da78b70	0.081808925
255	0x3b8c73dc	0.0042862725

weight f4 [5, 64]
0	0x3b0e0d80	0.0021675527
1	0xbd73d480	-0.059528828
2	0x3da9b5f8	0.08286661
3	0xbdd31b98	-0.103079975
4	0x3b4f75c0	0.0031655878
5	0x3d700f28	0.058608204
6	0x3d54a93c	0.051919207
7	0x3d6b6ea8	0.057478577
8	0x3dc3dffe	0.095642075
9	0x3deb8c12	0.11501326
10	0xbd7104ec	-0.058842584
11	0xbc55c9f0	-0.013048634
12	0x3da84200	0.082157135
13	0xbd3e4848	-0.04645565
14	0x3d673a84	0.05645229
15	0x3d975026	0.07388334
16	0x3dc2bac8	0.09508282
17	0xbd80d104	-0.062898666
18	0x3de7e864	0.11323622
19	0xbddc21bc	-0.10748622
20	0x3c874070	0.016510218
21	0x3d9fb758	0.07798642
22	0xbd512f48	-0.05107048
23	0x3dfe23b0	0.124091506
24	0xbdb5ffaa	-0.08886655
25	0xbdaa165e	-0.083050475
26	0x3c6a0490	0.014283314
27	0x3dec72be	0.11545323
28	0x3c69e960	0.014276832
29	0x3d6600fc	0.056153283
30	0x3d70c798	0.058784097
31	0x3c7633b0	0.015026972
32	0xbc1a12b0	-0.0094038695
33	0x3dd11446	0.10208945
34	0x3bc6b180	0.00606364
35	0x3dcac0a0	0.099000216
36	0xbd5b82b4	-0.053591445
37	0xbdfcb682	-0.12339498
38	0xbd89d540	-0.06730127
39	0xbd2fca80	-0.04291773
40	0x3daf32b4	0.08554593
41	0x3d56b124	0.05241503
42	0x3d62914c	0.055314347
43	0x3d1cd868	0.03829232
44	0xbc88c440	-0.016695142
45	0x3d5b0f10	0.05348116
46	0xbdd7e884	-0.10542396
47	0xbd584c0c	-0.0528069
48	0x3d48d2e8	0.04902926
49	0x3dffed00	0.12496376
50	0x3d11a820	0.035560727
51	0x3db347a6	0.087539
52	0x3daf041c	0.08545706
53	0x3dec4b58	0.11537808
54	0x3d9d042e	0.07666813
55	0xbdd25b02	-0.102712646
56	0xbdff0d36	-0.12453692
57	0x3df22c74	0.11824885
58	0x3ceb25c8	0.028704539
59	0x3d27582c	0.04085557
60	0x3d82e180	0.06390667
61	0xbd96e30c	-0.073675245
62	0x3d3046a8	0.043036133
63	0x3bac9260	0.0052664727
64	0xbda8729c	-0.08224985
65	0xba742c00	-0.0009314418
66	0x3da9e0fa	0.08294864
67	0x3d60a1f8	0.054841965
68	0xbdfd2d48	-0.12362152
69	0xbddd874c	-0.108168215
70	0xbd8b5760	-0.06803775
71	0xbd565100	-0.05232334
72	0xbd8c4f40	-0.06851053
73	0x3d70452c	0.058659717
74	0x3d0a7fdc	0.033813342
75	0xbaa88f00	-0.001286
76	0x3d9d5c36	0.076836035
77	0xbd0bd294	-0.03413637
78	0x3ca309b0	0.01990208
79	0xbdb4d040	-0.08828783
80	0x3ca86ad0	0.020558745
81	0xbdf4d754	-0.11955133
82	0xbd8f0d72	-0.06984986
83	0xbdeb1aee	-0.11479746
84	0xbdc71720	-0.097212076
85	0xbd0a5a0c	-0.03377728
86	0xbdb167fc	-0.086624116
87	0x3d9c36ea	0.076276615
88	0x3adc6280	0.0016814023
89	0xbd8fb6be	-0.07017277
90	0x3d369b04	0.04458143
91	0x3c3ff230	0.011715457
92	0xbda4d334	-0.08048096
93	0xbddb5720	-0.10709977
94	0x3d3ccc10	0.046093047
95	0x3dc47dee	0.09594332
96	0xbd83d18a	-0.06436451
97	0x3cb75d08	0.022383228
98	0x3d685908	0.05672553
99	0x3d8226c8	0.06355053
100	0xbd00de48	-0.031461984
101	0x3dd9e604	0.10639575
102	0xbd9cc052	-0.0765387
103	0x3dedeaf0	0.116170764
104	0x3db028ce	0.08601533
105	0xbb61e400	-0.0034468174
106	0x3d93701e	0.07199119
107	0x3da3f8e4	0.080064565
108	0x3ce37bb8	0.027768955
109	0xbc6dafc0	-0.014507234
110	0xbdb064d2	-0.0861298
111	0x3c6b6140	0.014366448
112	0x3dc27384	0.09494689
113	0x3d8890a4	0.06668213
114	0xbdbfa7da	-0.09358187
115	0xbc2bd200	-0.01048708
116	0xbdc8b952	-0.09800972
117	0xbd8143e2	-0.06311776
118	0xbd5ff544	-0.054677263
119	0xb8b99800	-8.8497996e-05
120	0xbdbfccbc	-0.09365222
121	0x3cfb8c78	0.03070663
122	0x3d5691e8	0.05238524
123	0xbd9c21a8	-0.07623607
124	0xbda8f95a	-0.08250685
125	0xbd8ef3d2	-0.06980099
126	0xbd7b7344	-0.061389223
127	0x3c2094a0	0.00980106
128	0xbd46e5c4	-0.048558965
129	0x3df42f12	0.119230404
130	0xbc3d76d0	-0.011563972
131	0xbcbb9280	-0.022897005
132	0xbd76aac0	-0.060221434
133	0xbde34e90	-0.11098969
134	0x3d6aa838	0.057289332
135	0x3daf7192	0.08566584
136	0x3cb3d308	0.021951213
137	0xbdb77aaa	-0.08958943
138	0x3cd2fef0	0.02575633
139	0x3d283110	0.041062415
140	0xbd83303e	-0.06405686
141	0xbce11918	-0.027477786
142	0x3d42f974	0.04760118
143	0xbde05b10	-0.10954869
144	0x3d9b4bae	0.07582794
145	0xbd9d7fc4	-0.07690385
146	0xbd9737a0	-0.073836565
147	0xbd41a4a8	-0.04727617
148	0xbd823ad0	-0.06358874
149	0x3d125c80	0.035732746
150	0x3b0c8840	0.0021443516
151	0x3d5bc0e4	0.05365075
152	0x3d84996a	0.06474574
153	0xbc9afe78	-0.018920168
154	0xbd86e57e	-0.06586741
155	0xbd9efbac	-0.07762846
156	0x3c2c0c00	0.010500908
157	0x3df633d4	0.12021604
158	0xbdccc994	-0.099993855
159	0x3d8bf9ac	0.068347305
160	0xbd6633f8	-0.056201905
161	0xbd7d0330	-0.061770618
162	0xbd8dcafa	-0.0692348
163	0x3d95e45c	0.07318947
164	0x3df9169a	0.12162514
165	0xbd094d64	-0.03352107
166	0xbdcc6e00	-0.09981918
167	0xbdd7906c	-0.10525593
168	0x3cbf2bd8	0.023336336
169	0xbc338cc0	-0.01095885
170	0x3da88340	0.08228159
171	0xbd12489c	-0.035713777
172	0xbaba5f00	-0.0014218986
173	0xbdb7c718	-0.08973521
174	0xbd38a65c	-0.045080528
175	0x3d24c7bc	0.040229544
176	0x3cd33f00	0.025786877
177	0xbdcd4dd4	-0.1002461
178	0x3dbabdac	0.09118208
179	0x3dd9a594	0.10627285
180	0xbddd783e	-0.1081395
181	0x3d96631a	0.07343121
182	0xbdbe9242	-0.0930524
183	0x3d7df5e4	0.062002078
184	0x3d808d0a	0.06276901
185	0xbdb330d4	-0.087495476
186	0xba575600	-0.0008214414
187	0xbd18d6a4	-0.037314072
188	0xbd0abfc0	-0.033874273
189	0xbde43576	-0.11143009
190	0x3de02604	0.10944751
191	0x3ca16428	0.019701079
192	0x3d38f5e4	0.045156375
193	0xbd8ce69e	-0.06879924
194	0xbac3df00	-0.0014943779
195	0x3c28b7b0	0.010297701
196	0xbdf3c850	-0.11903441
197	0xbdd871a8	-0.10568553
198	0x3d3bba24	0.045831814
199	0x3dfede08	0.12444693
200	0x3dfc8340	0.123297215
201	0xbd782168	-0.060578734
202	0x3dd65f02	0.1046734
203	0xbd98f1c6	-0.074679896
204	0x3bd0a420	0.0063672215
205	0xbd8e7b0e	-0.069570646
206	0xbcfc17f0	-0.030773133
207	0x3cb9add8	0.022665903
208	0xbd828c4a	-0.06374414
209	0xbdf1e07a	-0.11810394
210	0xbba9f700	-0.0051869154
211	0xbd75e410	-0.06003195
212	0xbdbaf7f0	-0.091293216
213	0xbd9d9828	-0.07695037
214	0xbd8bd320	-0.06827378
215	0xbdf91cfe	-0.12163733
216	0xbdf00afa	-0.117208436
217	0xbdd4be68	-0.103878796
218	0x3d898c78	0.067162454
219	0x3c50e400	0.012749672
220	0x3a0a7b00	0.00052826107
221	0xbd31a0cc	-0.04336624
222	0xbbd229c0	-0.0064136684
223	0x3c645080	0.013935208
224	0xbd9e1f14	-0.077207714
225	0x3da31318	0.07962626
226	0x3d402c5c	0.046917304
227	0xbdc4c9b8	-0.09608787
228	0xbddf6ef0	-0.109098315
229	0xbda7496a	-0.081682995
230	0xbde6740a	-0.112526014
231	0xbd7151c4	-0.05891587
232	0x3d7bcbf0	0.061473787
233	0x3b85b460	0.0040803403
234	0xbcd66d18	-0.026175067
235	0xbd1e3dd0	-0.038633168
236	0x3dd4a6a6	0.10383348
237	0xbd4cf9c0	-0.050042868
238	0xbddb7094	-0.10714832
239	0x3d19c498	0.037541002
240	0x3cbc7e60	0.023009479
241	0xbd683cac	-0.056698486
242	0xbb311cc0	-0.0027025193
243	0x3d3b2d9c	0.045697793
244	0xbcf0c4f0	-0.029390782
245	0xbccd5088	-0.025062814
246	0xbc256d40	-0.010096848
247	0xbc185ed0	-0.009299949
248	0x3dfd37ae	0.12364136
249	0x3d5061c0	0.05087447
250	0xbaca1100	-0.0015416443
251	0xbdaeadf6	-0.08529274
252	0x3daae07e	0.083436
253	0xbd58289c	-0.052773103
254	0x3deaad40	0.11458826
255	0x3dc56eb4	0.096402556

bias f4 [5]
0	0x3d663d80	0.056210995
1	0xbd9acdfe	-0.07558821
2	0xbd98ef2a	-0.07467492
3	0x3c8c88c8	0.017155066
4	0x3c771230	0.01508002
